src/alphalibras_app/models/modelo_libras.tflite (tflite, 23200 bytes, 6 tensors)

arith.constant f4 [128]
-0.22275755 -0.09178744 0.023750408 0.10349686 -0.12810963 -0.05944735 0.081454895 -0.10308764
-0.008601341 -0.20264417 -0.23125346 -0.42389506 0.053776115 -0.06777641 0.06478175 -0.4707661
-0.019198982 -0.21120715 -0.21590151 -0.13349694 -0.055168442 0.16773413 -0.07209582 -0.13911268
-0.20734674 -0.003268282 0.039897427 0.03776113 -0.14640716 0.020704595 -0.21058498 -0.04964577
-0.047776196 0.07336455 -0.12110037 -0.06139529 0.01272781 -0.4198863 0.19683804 -0.1718698
-0.08423883 -0.08739861 -0.12804815 -0.28120002 0.17467943 -0.05786714 0.06677877 0.0082800165
0.0059624175 -0.20001252 -0.062051143 -0.32521755 -0.2640621 -0.036857106 0.08055723 -0.010838167
-0.13869067 -0.20645106 0.018424125 0.03201644 -0.09573918 0.09732758 0.04073534 -0.13185765
0.09335096 -0.18309696 -0.265555 0.049168848 -0.14628927 -0.20952666 -0.008487208 -0.121931
-0.005126301 -0.33247182 -0.32975173 0.07698001 -0.13945262 0.041719284 0.08597416 -0.012054556
-0.21274592 -0.19336475 -0.0723438 -0.17054155 -0.10003457 0.077591196 -0.19743171 0.08295537
-0.1345916 0.13247399 0.023578156 -0.18219236 0.0040768054 -0.41762236 -0.020104216 -0.20807177
-0.19233467 -0.2195344 -0.03357357 -0.097338855 -0.22819667 -0.1335644 0.11258734 -0.20011222
-0.07942943 0.0061721886 -0.0656963 -0.09956154 0.01506291 -0.10426199 -0.20373008 0.0869758
0.1808688 -0.21390672 -0.16482101 -0.20303375 -0.20404491 -0.0074283998 -0.030263532 -0.15836708
-0.09093696 -0.026581967 -0.2163163 -0.27803802 -0.14984535 -0.12450613 0.15060303 -0.009595252
00000000: 8e1a 64be 0efb bbbd 3790 c23c 29f6 d33d
00000010: 2c2f 03be 117f 73bd d3d1 a63d 9d1f d3bd
00000020: a4ec 0cbc f481 4fbe b5cd 6cbe c608 d9be
00000030: 5844 5c3d 5cce 8abd 4bac 843d 4108 f1be
00000040: 2f47 9dbc b046 58be 4915 5dbe 6cb3 08be
00000050: 4ef8 61bd 7fc2 2b3e f9a6 93bd 8e73 0ebe
00000060: b452 54be ac30 56bb 7c6b 233d 6aab 1a3d
00000070: c2eb 15be af9c a93c 97a3 57be 5d59 4bbd
00000080: f9b0 43bd 2740 963d 7903 f8bd a179 7bbd
00000090: 4e88 503c 56fb d6be e98f 493e a3fe 2fbe
000000a0: 6885 acbd 0bfe b2bd 0e1f 03be 73f9 8fbe
000000b0: 2adf 323e 1806 6dbd 4fc3 883d e8a8 073c
000000c0: 6260 c33b 15d0 4cbe 5729 7ebd ea82 a6be
000000d0: 2633 87be 7af7 16bd 30fb a43d 9192 31bc
000000e0: ed04 0ebe e867 53be 31ee 963c ac23 033d
000000f0: e712 c4bd af53 c73d 1ada 263d b105 07be
00000100: ca2e bf3d c57d 3bbe d3f6 87be 4665 493d
00000110: dbcc 15be 288e 56be ee0d 0bbc f6b6 f9bd
00000120: 88fa a7bb bf39 aabe 38d5 a8be b2a7 9d3d
00000130: abcc 0ebe d7e1 2a3d 3813 b03d 7980 45bc
00000140: 11da 59be 6901 46be fc28 94bd 72a2 2ebe
00000150: edde ccbd 22e8 9e3d 8a2b 4abe 81e4 a93d
00000160: 61d2 09be 43a7 073e fa26 c13c a290 3abe
00000170: b996 853b 99d2 d5be 99b1 a4bc c410 55be
00000180: 61f3 44be a0cd 60be 7184 09bd 9859 c7bd
00000190: 63ac 69be 1bc5 08be 3194 e63d 38ea 4cbe
000001a0: e6ab a2bd 1240 ca3b c88b 86bd ece6 cbbd
000001b0: 6cca 763c 4f87 d5bd 9e9e 50be 5e20 b23d
000001c0: ac35 393e 5d0a 5bbe d7c6 28be 14e8 4fbe
000001d0: 26f1 50be ef69 f3bb 3aeb f7bc fb2a 22be
000001e0: 283d babd 6dc2 d9bc 0582 5dbe 005b 8ebe
000001f0: 0f71 19be 12fd febd ae37 1a3e 6735 1dbc

arith.constant1 f4 [64]
0.5051354 0.0439113 0.2561082 -0.042527836 0.128527 0.66611975 0.16805798 -0.1928916
0.25373396 -0.2383566 0.21694127 -0.060178153 -0.045070697 0.037046358 0.42310643 -0.4275525
0.30085817 0.30600327 -0.09335536 0.57944775 0.2452973 -0.22274292 0.00043000502 -0.27823758
0.20767747 0.00519361 0.13409299 -0.049059182 0.15778977 -0.09877146 0.38217673 -0.05216416
0.054684073 0.49479565 0.06284906 0.56188524 0.2426003 0.06822003 -0.31781334 -0.03938866
-0.29399046 -0.22334942 -0.4228623 0.12963733 -0.32368368 0.5451849 0.11787605 0.087386884
0.06761449 0.093550436 -0.1056998 0.14659339 0.5243873 -0.11423783 0.05030643 0.001683198
0.17458391 0.20644844 0.13278586 0.39969507 0.17013103 0.12788878 0.034504622 -0.2219544
00000000: 8e50 013f 56dc 333d 9d20 833e ab31 2ebd
00000010: 959c 033e d386 2a3f 6417 2c3e 6085 45be
00000020: 6be9 813e c113 74be da25 5e3e 5e7d 76bd
00000030: 0d9c 38bd ecbd 173d 68a1 d83e 29e8 dabe
00000040: 150a 9a3e 76ac 9c3e 1831 bfbd b056 143f
00000050: 372f 7b3e b816 64be 4c72 e139 2875 8ebe
00000060: 67a9 543e 292f aa3b ac4f 093e 48f2 48bd
00000070: a493 213e b148 cabd abac c33e 16aa 55bd
00000080: 68fc 5f3d db55 fd3e 02b7 803d b6d7 0f3f
00000090: 376c 783e f1b6 8b3d 6eb8 a2be 0156 21bd
000000a0: eb85 96be b6b5 64be 6881 d8be a6bf 043e
000000b0: deb9 a5be 3d91 0b3f 0069 f13d e5f7 b23d
000000c0: 7779 8a3d 5f97 bf3d 2379 d8bd 941c 163e
000000d0: 3f3e 063f 86f5 e9bd 1d0e 4e3d c19e dc3a
000000e0: 20c6 323e 3867 533e 04f9 073e d5a4 cc3e
000000f0: d436 2e3e 47f5 023e b854 0d3d 0448 63be

arith.constant2 f4 [21]
0.041652948 0.4488903 -0.51988727 0.34207624 -0.037409365 -0.08590961 0.22798422 -0.23699707
-0.3624077 -0.42010945 0.2424709 -0.2391962 0.36533108 -0.013302459 -0.10089447 0.7286644
0.38967898 0.65381444 -0.42210522 -0.12588486 -0.5647874
00000000: 489c 2a3d f3d4 e53e 5517 05bf 9e24 af3e
00000010: 903a 19bd 61f1 afbd b274 693e 5caf 72be
00000020: 818d b9be 9618 d7be 4b4a 783e d9ef 74be
00000030: ad0c bb3e 8ff2 59bc c3a1 cebd c089 3a3f
00000040: 0184 c73e 6260 273f 2d1e d8be f6e7 00be
00000050: e895 10bf

tfl.pseudo_qconst i1 [21, 64]
-65 18 0 -31 47 -65 -34 -9
-8 -27 35 11 16 -57 14 -12
36 -62 -54 -127 -3 2 13 9
-78 19 -60 -71 -88 27 -46 17
-50 -57 -66 -51 -44 -57 9 -44
8 35 -15 28 -21 -79 -13 -45
-86 -4 -18 33 3 30 -35 37
10 7 -78 8 -63 24 13 14
21 12 19 14 -25 12 22 10
16 -46 -62 -93 -73 30 2 -24
-127 -106 -3 18 11 -49 -80 -50
-43 -12 6 12 12 -42 16 -32
-75 9 22 47 -79 -38 -73 -17
-23 -1 -8 -55 -111 29 16 -60
-12 -51 -87 -69 4 17 -6 24
-68 -9 -15 22 -62 -64 14 -25
24 10 -27 -4 -63 -60 12 30
-59 32 -6 32 -14 -10 -51 -21
-43 -43 36 1 15 11 25 19
-57 26 15 13 26 -1 25 -12
-28 -28 22 -118 -100 -47 22 -2
22 -109 37 32 23 -89 10 -12
-38 18 19 -19 -4 16 36 31
-89 -54 -70 -127 16 -65 -63 37
10 -79 -10 9 21 15 6 -53
-43 -50 -47 -14 -9 -6 9 -38
12 -15 -61 13 -69 13 -77 -82
-51 3 -127 8 11 9 -39 9
16 18 -90 17 24 -43 -66 -36
-66 -28 -67 -51 11 27 1 2
-31 29 -32 17 -2 11 -62 23
15 6 10 19 -25 14 -49 -67
00000000: bf12 00e1 2fbf def7 f8e5 230b 10c7 0ef4
00000010: 24c2 ca81 fd02 0d09 b213 c4b9 a81b d211
00000020: cec7 becd d4c7 09d4 0823 f11c ebb1 f3d3
00000030: aafc ee21 031e dd25 0a07 b208 c118 0d0e
00000040: 150c 130e e70c 160a 10d2 c2a3 b71e 02e8
00000050: 8196 fd12 0bcf b0ce d5f4 060c 0cd6 10e0
00000060: b509 162f b1da b7ef e9ff f8c9 911d 10c4
00000070: f4cd a9bb 0411 fa18 bcf7 f116 c2c0 0ee7
00000080: 180a e5fc c1c4 0c1e c520 fa20 f2f6 cdeb
00000090: d5d5 2401 0f0b 1913 c71a 0f0d 1aff 19f4
000000a0: e4e4 168a 9cd1 16fe 1693 2520 17a7 0af4
000000b0: da12 13ed fc10 241f a7ca ba81 10bf c125
000000c0: 0ab1 f609 150f 06cb d5ce d1f2 f7fa 09da
000000d0: 0cf1 c30d bb0d b3ae cd03 8108 0b09 d909
000000e0: 1012 a611 18d5 bedc bee4 bdcd 0b1b 0102
000000f0: e11d e011 fe0b c217 0f06 0a13 e70e cfbd

tfl.pseudo_qconst1 i1 [64, 128]
1 -13 -2 28 104 -6 52 49
-80 -39 42 -24 -13 62 -16 -28
-1 -37 3 -18 31 9 3 25
-13 -8 -5 16 -4 -23 19 -127
79 101 2 -24 -9 -53 -28 1
2 21 -7 -38 1 -16 -40 47
-7 4 -5 -29 3 15 43 2
-33 47 6 3 7 37 20 -11
-5 17 24 55 11 -15 33 -12
-8 -115 -21 12 -42 -19 -62 -2
-30 13 -33 -60 3 50 -41 64
67 -29 -4 -18 23 -106 0 14
8 -12 11 6 107 -14 -3 -105
25 30 -26 -25 80 -17 -22 6
92 -14 -6 -50 2 4 -10 -64
-3 -1 -13 -10 -33 15 17 -17
7 -13 -10 4 12 -17 9 14
-38 -8 -34 -22 -42 -10 -3 -24
-6 12 34 3 15 -23 -9 52
12 -18 -10 -28 -12 59 30 -21
-8 15 -37 -36 -8 -8 -47 19
32 18 -13 3 42 -14 25 -68
39 66 -31 -27 25 18 127 -11
-9 -38 3 -23 19 -40 23 -13
60 -2 17 12 9 -32 58 19
-4 46 -4 -16 1 -30 4 66
30 48 15 31 -28 -8 -13 -43
23 -19 -11 2 10 29 54 4
2 -18 -46 -3 24 -2 6 -25
1 -30 10 6 -8 13 -5 -5
87 15 2 18 -16 80 45 -59
-8 5 -30 -3 -16 -6 -7 12
00000000: 01f3 fe1c 68fa 3431 b0d9 2ae8 f33e f0e4
00000010: ffdb 03ee 1f09 0319 f3f8 fb10 fce9 1381
00000020: 4f65 02e8 f7cb e401 0215 f9da 01f0 d82f
00000030: f904 fbe3 030f 2b02 df2f 0603 0725 14f5
00000040: fb11 1837 0bf1 21f4 f88d eb0c d6ed c2fe
00000050: e20d dfc4 0332 d740 43e3 fcee 1796 000e
00000060: 08f4 0b06 6bf2 fd97 191e e6e7 50ef ea06
00000070: 5cf2 face 0204 f6c0 fdff f3f6 df0f 11ef
00000080: 07f3 f604 0cef 090e daf8 deea d6f6 fde8
00000090: fa0c 2203 0fe9 f734 0cee f6e4 f43b 1eeb
000000a0: f80f dbdc f8f8 d113 2012 f303 2af2 19bc
000000b0: 2742 e1e5 1912 7ff5 f7da 03e9 13d8 17f3
000000c0: 3cfe 110c 09e0 3a13 fc2e fcf0 01e2 0442
000000d0: 1e30 0f1f e4f8 f3d5 17ed f502 0a1d 3604
000000e0: 02ee d2fd 18fe 06e7 01e2 0a06 f80d fbfb
000000f0: 570f 0212 f050 2dc5 f805 e2fd f0fa f90c

sequential_1/dense_1/MatMul i1 [128, 63]
28 -3 3 18 -31 -26 -2 50
-47 2 19 1 -8 105 -54 55
-66 -1 46 -58 22 -47 4 26
-55 -1 -17 50 -45 -24 -1 -38
29 -19 -27 -2 -20 -37 -15 27
-54 -28 -12 -33 17 -51 -19 16
-48 -20 40 38 -21 -62 -4 -24
21 -2 73 25 -38 127 18 16
6 23 -34 -4 -83 4 32 -53
49 -56 8 26 -127 36 1 -22
29 34 -16 5 46 10 57 3
-21 30 18 18 24 -74 -4 10
-79 41 32 -84 41 72 73 -25
10 -38 -4 -24 17 22 16 27
10 63 81 -19 23 -9 -69 5
2 -5 -30 8 -10 12 39 -24
13 8 -126 82 28 -98 94 -47
-45 26 -115 42 62 -69 -87 -94
61 42 1 59 71 -5 26 27
49 -4 -4 -114 17 52 -25 24
-33 -25 58 -110 28 35 21 -40
2 79 -13 -26 75 -6 -115 -27
6 38 55 -70 26 84 -27 19
-51 -8 51 -127 -20 -1 -5 -46
39 -45 13 40 14 34 65 -25
34 77 -44 -8 82 -66 -21 -30
-15 -17 -43 33 34 -92 51 -37
-1 -4 -12 11 32 2 -102 -1
25 -82 -57 12 29 0 -89 -53
55 -14 36 -64 122 41 -127 126
16 84 -29 37 115 -18 2 106
17 56 35 64 -7 -9 19 -58
00000000: 1cfd 0312 e1e6 fe32 d102 1301 f869 ca37
00000010: beff 2ec6 16d1 041a c9ff ef32 d3e8 ffda
00000020: 1ded e5fe ecdb f11b cae4 f4df 11cd ed10
00000030: d0ec 2826 ebc2 fce8 15fe 4919 da7f 1210
00000040: 0617 defc ad04 20cb 31c8 081a 8124 01ea
00000050: 1d22 f005 2e0a 3903 eb1e 1212 18b6 fc0a
00000060: b129 20ac 2948 49e7 0ada fce8 1116 101b
00000070: 0a3f 51ed 17f7 bb05 02fb e208 f60c 27e8
00000080: 0d08 8252 1c9e 5ed1 d31a 8d2a 3ebb a9a2
00000090: 3d2a 013b 47fb 1a1b 31fc fc8e 1134 e718
000000a0: dfe7 3a92 1c23 15d8 024f f3e6 4bfa 8de5
000000b0: 0626 37ba 1a54 e513 cdf8 3381 ecff fbd2
000000c0: 27d3 0d28 0e22 41e7 224d d4f8 52be ebe2
000000d0: f1ef d521 22a4 33db fffc f40b 2002 9aff
000000e0: 19ae c70c 1d00 a7cb 37f2 24c0 7a29 817e
000000f0: 1054 e325 73ee 026a 1138 2340 f9f7 13c6
